…
Layer (type)                    Output Shape         Param #     Connected to                     
==================================================================================================
sequence (InputLayer)           [(None, 1344, 4)]    0                                            
__________________________________________________________________________________________________
stochastic_reverse_complement ( ((None, 1344, 4), () 0           sequence[0][0]                   
__________________________________________________________________________________________________
stochastic_shift (StochasticShi (None, 1344, 4)      0           stochastic_reverse_complement[0][
__________________________________________________________________________________________________
gelu (GELU)                     (None, 1344, 4)      0           stochastic_shift[0][0]           
__________________________________________________________________________________________________
conv1d (Conv1D)                 (None, 1344, 288)    19584       gelu[0][0]                       
__________________________________________________________________________________________________
batch_normalization (BatchNorma (None, 1344, 288)    1152        conv1d[0][0]                     
__________________________________________________________________________________________________
max_pooling1d (MaxPooling1D)    (None, 448, 288)     0           batch_normalization[0][0]        
__________________________________________________________________________________________________
gelu_1 (GELU)                   (None, 448, 288)     0           max_pooling1d[0][0]              
__________________________________________________________________________________________________
conv1d_1 (Conv1D)               (None, 448, 288)     414720      gelu_1[0][0]                     
__________________________________________________________________________________________________
batch_normalization_1 (BatchNor (None, 448, 288)     1152        conv1d_1[0][0]                   
__________________________________________________________________________________________________
max_pooling1d_1 (MaxPooling1D)  (None, 224, 288)     0           batch_normalization_1[0][0]      
__________________________________________________________________________________________________
gelu_2 (GELU)                   (None, 224, 288)     0           max_pooling1d_1[0][0]            
__________________________________________________________________________________________________
conv1d_2 (Conv1D)               (None, 224, 323)     465120      gelu_2[0][0]                     
__________________________________________________________________________________________________
batch_normalization_2 (BatchNor (None, 224, 323)     1292        conv1d_2[0][0]                   
__________________________________________________________________________________________________
max_pooling1d_2 (MaxPooling1D)  (None, 112, 323)     0           batch_normalization_2[0][0]      
__________________________________________________________________________________________________
gelu_3 (GELU)                   (None, 112, 323)     0           max_pooling1d_2[0][0]            
__________________________________________________________________________________________________
conv1d_3 (Conv1D)               (None, 112, 363)     586245      gelu_3[0][0]                     
__________________________________________________________________________________________________
batch_normalization_3 (BatchNor (None, 112, 363)     1452        conv1d_3[0][0]                   
__________________________________________________________________________________________________
max_pooling1d_3 (MaxPooling1D)  (None, 56, 363)      0           batch_normalization_3[0][0]      
__________________________________________________________________________________________________
gelu_4 (GELU)                   (None, 56, 363)      0           max_pooling1d_3[0][0]            
__________________________________________________________________________________________________
conv1d_4 (Conv1D)               (None, 56, 407)      738705      gelu_4[0][0]                     
__________________________________________________________________________________________________
batch_normalization_4 (BatchNor (None, 56, 407)      1628        conv1d_4[0][0]                   
__________________________________________________________________________________________________
max_pooling1d_4 (MaxPooling1D)  (None, 28, 407)      0           batch_normalization_4[0][0]      
__________________________________________________________________________________________________
gelu_5 (GELU)                   (None, 28, 407)      0           max_pooling1d_4[0][0]            
__________________________________________________________________________________________________
conv1d_5 (Conv1D)               (None, 28, 456)      927960      gelu_5[0][0]                     
__________________________________________________________________________________________________
batch_normalization_5 (BatchNor (None, 28, 456)      1824        conv1d_5[0][0]                   
__________________________________________________________________________________________________
max_pooling1d_5 (MaxPooling1D)  (None, 14, 456)      0           batch_normalization_5[0][0]      
__________________________________________________________________________________________________
gelu_6 (GELU)                   (None, 14, 456)      0           max_pooling1d_5[0][0]            
__________________________________________________________________________________________________
conv1d_6 (Conv1D)               (None, 14, 512)      1167360     gelu_6[0][0]                     
__________________________________________________________________________________________________
batch_normalization_6 (BatchNor (None, 14, 512)      2048        conv1d_6[0][0]                   
__________________________________________________________________________________________________
max_pooling1d_6 (MaxPooling1D)  (None, 7, 512)       0           batch_normalization_6[0][0]      
__________________________________________________________________________________________________
gelu_7 (GELU)                   (None, 7, 512)       0           max_pooling1d_6[0][0]            
__________________________________________________________________________________________________
conv1d_7 (Conv1D)               (None, 7, 256)       131072      gelu_7[0][0]                     
__________________________________________________________________________________________________
batch_normalization_7 (BatchNor (None, 7, 256)       1024        conv1d_7[0][0]                   
__________________________________________________________________________________________________
gelu_8 (GELU)                   (None, 7, 256)       0           batch_normalization_7[0][0]      
__________________________________________________________________________________________________
reshape (Reshape)               (None, 1, 1792)      0           gelu_8[0][0]                     
__________________________________________________________________________________________________
dense (Dense)                   (None, 1, 768)       1376256     reshape[0][0]                    
__________________________________________________________________________________________________
batch_normalization_8 (BatchNor (None, 1, 768)       3072        dense[0][0]                      
__________________________________________________________________________________________________
dropout (Dropout)               (None, 1, 768)       0           batch_normalization_8[0][0]      
__________________________________________________________________________________________________
gelu_9 (GELU)                   (None, 1, 768)       0           dropout[0][0]                    
